CNNModel.pth (torch, 305167 bytes, 12 tensors)

list_instructions.0.weight f8 [32, 1, 3, 3]
000000 62 5c 55 77 d6 76 cb bf cb de 77 b5 17 3b d1 3f
       -0.21456414057567758 0.2692317268515409
000010 ac 37 6c 82 a5 17 d0 3f ef bb 1a 52 fc 06 b4 3f
       0.2514432691249293 0.07823159222128571
000020 ee 72 02 59 3d 8f 9c bf 45 50 6d e9 fa e7 c1 bf
       -0.027890165860855846 -0.13989197156718283
000030 8b a7 f0 4d 40 ee c7 3f 2b 7b ef f6 3d 68 79 bf
       0.1869583492819483 -0.006202928589998528
000040 0c 0b 87 6c 3d 00 c8 3f 00 00 00 60 d9 bb d0 3f
       0.1875073223037237 0.2614654004573822
000050 00 00 00 00 55 c8 d1 bf 00 00 00 80 0a 01 b6 3f
       -0.27785229682922363 0.08595338463783264
000060 00 00 00 c0 dc 30 c5 3f 00 00 00 80 f8 1d b1 bf
       0.16555365920066833 -0.06686356663703918
000070 00 00 00 00 03 4a d5 bf 00 00 00 60 05 eb c2 bf
       -0.3326423168182373 -0.14779727160930634
000080 00 00 00 c0 fe 1e c2 3f 00 00 00 00 68 1d 9a 3f
       0.14157089591026306 0.025502800941467285
000090 20 90 7b e3 6f 29 c9 bf 5d 1f c2 23 ee ec d6 3f
       -0.19657705886413712 0.35821107379932987
0000a0 9d 66 96 8f 7d ff a5 3f e6 37 cb b9 2c e3 c8 bf
       0.042964862611552614 -0.19443282196010542
0000b0 ff 02 e9 0d 06 34 bd 3f 6d 6a 62 f2 fe 98 aa bf
       0.11407506789783993 -0.05194851597589865
0000c0 a4 c9 b3 c1 1c 7a bf bf 66 4c 56 bc 20 13 d2 3f
       -0.12295703629550886 0.28241747276587714
0000d0 9b cc 13 b3 d4 a1 bc bf df 48 64 f4 85 70 ca bf
       -0.1118443429184474 -0.20655893738928108
0000e0 9d 9d 1a b2 27 a6 ca bf fe 6a a9 7d 8c a3 ae 3f
       -0.20819565006716526 0.059841528262685614
0000f0 e8 89 cb ab 83 35 8e bf 2c 37 3f 25 7b d7 a7 3f
       -0.014750508003491938 0.04656586484598643
000100 f9 36 fb 3c 5b ef ce bf 36 25 ad b5 c6 3b d1 3f
       -0.2416795776138583 0.26927345029669725
000110 09 6a 72 66 19 d4 8a bf c6 d4 db 8e ef b6 ac bf
       -0.013099859656269268 -0.05608318919068149
000120 00 00 00 a0 e0 f9 d3 3f 00 00 00 60 a5 c4 cd bf
       0.3121263086795807 -0.23256365954875946
000130 00 00 00 00 9c df 8e bf 00 00 00 c0 20 cf c3 bf
       -0.015074938535690308 -0.1547585427761078
000140 00 00 00 80 5c de b9 3f 00 00 00 00 38 ec a4 bf
       0.10104921460151672 -0.04086470603942871
000150 00 00 00 c0 66 71 ca bf 00 00 00 40 69 f0 d1 bf
       -0.20658573508262634 -0.28029853105545044
000160 00 00 00 00 76 ab 9b 3f 04 87 60 59 be 45 cd bf
       0.02702125906944275 -0.22869090427507655
000170 7a 74 55 c5 32 d4 c7 3f 55 b7 fe fe 09 94 d4 bf
       0.18616327891769285 -0.3215355863747978
000180 dc 4c ea e2 c1 c6 89 bf a1 de 3a df a8 1b c8 bf
       -0.012586130845454617 -0.18834410571956986
000190 0f e4 99 a0 00 8c 6d bf 1b a8 1c e5 b5 c6 c9 bf
       -0.003606797433175497 -0.20137666403871965
0001a0 67 e8 49 09 1f ff 7b 3f 5e 92 4b 6b aa fc bd 3f
       0.006835099444851256 0.11713662261497279
0001b0 b6 42 19 86 8a a6 c2 3f 37 72 3f d2 66 13 b5 bf
       0.14570743129526925 -0.0823272956180937
0001c0 2a 6e 79 89 61 01 cd bf 9f 76 3e e8 e9 e8 ca bf
       -0.22660464489568827 -0.21023296203650418
0001d0 06 2c 16 4d af 3e 66 3f 50 5a d4 28 c9 76 d2 3f
       0.0027154373025886107 0.2885001085973373
0001e0 8f 50 77 3f 5b ca 74 bf f1 cc f1 6f 73 2f d0 3f
       -0.005075794636884136 0.25289617473681775
0001f0 58 ac 82 a1 9f 38 c6 3f fc 03 a8 9d 69 35 d1 3f
       0.17360301386119903 0.26888504406093694
000200 a0 88 05 8c 33 4c c9 3f 88 f6 ea a3 70 86 c4 3f
       0.19763798081391304 0.16035278323936475
000210 c9 9b 2e f6 15 e8 78 bf 9b 76 36 b3 7c 2d be 3f
       -0.006080709254923052 0.11788157820998395
000220 85 55 6e ff 56 dd af bf bd 41 a9 cf f0 3e ba 3f
       -0.06223556392721278 0.10252289838650248
000230 3a 8a f1 ed bd 1e b3 3f d3 b1 a3 85 3c 65 c0 bf
       0.0746878343502794 -0.12808949017870805
000240 94 72 1f bd 9f b4 d5 bf a8 4c 96 a6 0a 66 c1 bf
       -0.33914941281344935 -0.1359265626348123
000250 07 5e 72 0a 0b 5a b7 3f 9a 4c 97 8f 43 e7 d4 bf
       0.09121769909904041 -0.32661522886810135
000260 82 81 12 1f 12 b3 c8 3f 58 6e a3 37 ce a8 bd bf
       0.19296480672074884 -0.11585701807364879
000270 35 cd 2e 81 9a 1e d5 bf 53 3b 94 3b 88 81 cc bf
       -0.32999289145955696 -0.2227030077851518
000280 9c fc 08 75 7d 92 ba 3f f0 32 63 48 a4 8e 95 3f
       0.10379776103308064 0.021051947515661362
000290 ad 96 54 93 a9 df ca bf 3a b1 1a ee d5 1d b6 3f
       -0.20995063489788404 0.08639275611011935
0002a0 18 0e 8c 72 d9 e0 c4 3f 52 3f c7 0e 03 4b d4 3f
       0.16311185925597793 0.31707836573786097
0002b0 ef 30 bb e6 44 d1 d3 3f d2 58 a1 11 bb b8 c7 3f
       0.3096477750048185 0.18532503472187628
0002c0 c3 cf 57 df f7 42 c6 bf 87 41 45 25 6d de cf bf
       -0.17391870885296443 -0.24897541351175453
0002d0 00 00 00 40 f9 13 ce 3f 00 00 00 80 c1 82 b8 bf
       0.23498454689979553 -0.09574517607688904
0002e0 00 00 00 80 51 3b bb 3f 00 00 00 00 74 21 bf bf
       0.1063738763332367 -0.12160420417785645
0002f0 00 00 00 60 79 30 c7 bf 00 00 00 c0 1e 79 b9 bf
       -0.18116681277751923 -0.09950439631938934
000300 00 00 00 c0 2a 10 cb bf 00 00 00 60 5b 90 d3 bf
       -0.2114308774471283 -0.3056858479976654
000310 00 00 00 00 78 38 7c 3f d3 17 d9 b6 ad ef c5 bf
       0.006889790296554565 -0.17137690952421156
000320 0c 34 d1 cd f9 8e cb 3f 6d 3c 77 47 dd 21 c2 3f
       0.21530077504795064 0.1416584586099562
000330 aa 85 2a a6 07 d4 b5 bf f8 18 6e ef 3d 59 ca bf
       -0.08526656920232392 -0.2058484477131015
000340 9d 43 5c d9 fd 36 d1 3f 5a 6c 0f ba c6 35 a1 3f
       0.2689814207706663 0.033613405430252555
000350 2e f1 2c 96 00 35 b0 bf 38 cc 82 65 af 4f cb 3f
       -0.06330875078578366 0.2133692975672561
000360 42 5a 20 5e e9 f3 cc bf ac ee 4c b1 a1 2c d3 3f
       -0.22619359107985032 0.2995990973902092
000370 39 a1 d6 a3 b7 ab bf 3f 35 d0 7e 04 1d 03 b6 bf
       0.12371394872628096 -0.0859850059485446
000380 fc 20 7c e2 4b 61 90 3f 3a 1e 61 0b 11 54 d3 3f
       0.015996156405010162 0.30200601683870654
000390 76 3e 39 dc 73 e8 d2 bf 54 5e 15 f0 51 f9 d2 bf
       -0.2954377794858155 -0.2964672894063132
0003a0 9b 06 48 5a e9 68 b0 3f 00 00 00 e0 eb 06 d4 bf
       0.06410082296499768 -0.3129224479198456
0003b0 00 00 00 c0 0b 6f c8 bf 00 00 00 00 56 18 b0 3f
       -0.19088885188102722 0.06287133693695068
0003c0 00 00 00 c0 f6 7e c3 3f 00 00 00 c0 e6 c3 d4 bf
       0.15231212973594666 -0.3244568705558777
0003d0 00 00 00 40 22 de d4 bf 00 00 00 40 71 b6 c2 3f
       -0.32605797052383423 0.14619269967079163
0003e0 00 00 00 00 91 2a c8 bf 00 00 00 00 cc 87 b7 3f
       -0.18879902362823486 0.09191584587097168
0003f0 ab 9d ad 58 ac d2 d0 bf 46 62 97 c7 05 10 c4 3f
       -0.26285847339610297 0.1567389702384096
000400 ac 1c e6 09 68 f1 ba bf 75 11 64 76 6d ef d3 bf
       -0.10524606935188058 -0.31148850022898183
000410 91 32 cc 47 d1 3c 81 bf c1 c4 e9 27 2f ff d4 3f
       -0.00841678142890004 0.3280752076889933
000420 93 37 96 7c 76 38 a8 3f 67 df 9d 44 be 59 d4 3f
       0.04730577727160248 0.3179774923405518
000430 ad 49 75 36 e2 30 99 3f b2 b3 b6 dc 6b 2a c3 3f
       0.024600538801061656 0.14973209645304802
000440 54 cd 70 42 51 93 97 3f 53 b7 38 22 54 5e cb 3f
       0.023022908859457417 0.21381618185972204
000450 cd 02 9c 32 b1 65 bd 3f b2 03 9d 58 57 47 c3 bf
       0.11483294950086105 -0.1506146605188668
000460 af 72 cd ee 6a d3 c5 3f 02 10 3a fc 96 b6 d3 3f
       0.17051445637016147 0.3080193961288843
000470 8b 99 fe 27 5c 55 b2 bf bf ce 5b f1 c6 a6 aa 3f
       -0.07161499000958409 0.05205365844986209
000480 63 51 7d 4a 5d 23 d2 bf 4c 80 a4 dc 30 6c 9e 3f
       -0.2834084727703809 0.02970959040351344
000490 4f 02 cb 84 5c 52 5b bf 95 bf 9c 9f f2 e3 c4 3f
       -0.001667585707011327 0.1632064132077146
0004a0 98 5e 35 42 d8 ae d0 bf f5 1d 62 99 06 54 9d bf
       -0.260671677262033 -0.02864084540536101
0004b0 75 9c 4a 65 4e 33 ab 3f f3 3d 77 9c ce 32 b6 3f
       0.05312581049411672 0.0867127544399791
0004c0 1b c6 df 99 b3 30 d2 3f 8e cf fc 7c 94 b2 b0 bf
       0.2842225077320976 -0.06522491504148162
0004d0 62 36 7a 75 18 9f ce 3f ad 8d dd 73 f2 92 d3 bf
       0.23923021064949795 -0.3058439380167453
0004e0 cf 1f a0 0a b1 fe c6 3f f2 a4 9f 4d 1f 80 d1 3f
       0.17964756983587768 0.27344496326857304
0004f0 68 7f d3 53 8c 59 c4 3f 95 cb e1 11 05 33 d1 bf
       0.158982792788261 -0.2687390017155676
000500 31 e2 2d 2c b0 3c 91 3f b8 36 8c 95 7d 47 b6 bf
       0.01683306951187741 -0.08702835942332399
000510 e7 55 92 dc 10 12 ab 3f bb 0e 72 a2 8f 95 6c 3f
       0.05287220661663721 0.0034892850267754494
000520 9b 26 3f 82 ea a6 ce bf 92 e4 27 85 03 ec b1 bf
       -0.23946887359334287 -0.07000753403544227
000530 53 c5 6a 74 a9 df ac 3f e0 35 d2 0c d8 c1 bb 3f
       0.05639390512568334 0.108426573877487
000540 3b 51 ef 28 f5 ef ce 3f 4a f9 7f a9 75 54 d3 3f
       0.24169792650958208 0.3020300059578359
000550 ca 5d 06 14 66 1c d3 bf 93 3b 53 68 2a 9f c2 3f
       -0.29860832171968055 0.14548235029220943
000560 98 b5 53 1b a8 e8 bc bf 6e 52 63 eb 63 d2 c9 bf
       -0.11292505900538286 -0.2017331027369837
000570 60 1f 28 6a 8e 3f b5 3f 00 f7 81 81 52 ff 95 bf
       0.08300104228703509 -0.021481789736291113
000580 25 cf 0d 34 49 ab c7 bf 95 ce 32 46 7a 54 cd 3f
       -0.18491473237701786 0.22914055278453263
000590 f8 e1 30 a7 f0 6c cd 3f 92 d9 69 4d 21 5b b9 3f
       0.22988708652134426 0.09904678478219456
0005a0 05 e6 2f b8 fd c9 cc 3f 4e 7d 73 79 8c 87 b4 3f
       0.2249142789221851 0.080193309451251
0005b0 14 90 d3 3a 34 d7 cc 3f 56 41 a7 d0 da 65 c9 bf
       0.2253175055731168 -0.1984208601775303
0005c0 3a 6a 0a 66 d5 94 a2 bf 2e 33 db 79 7b 23 b9 3f
       -0.036291760164392575 0.09819766736036392
0005d0 df d2 34 06 6f 71 c1 3f 51 cc 87 cd 6c 6c d2 bf
       0.13627422144931864 -0.2878677374967014
0005e0 a7 df cb ca a9 b2 d3 3f 5d 88 91 ee 10 cb a8 bf
       0.3077797394212162 -0.048424271700029144
0005f0 8f cd 96 84 38 42 d1 3f 2e 70 a0 a6 2d 46 ad bf
       0.2696667952361275 -0.05717604311959722
000600 e4 f0 02 a3 69 87 d4 bf b1 73 ac e8 93 4f d2 bf
       -0.32076493186083455 -0.28610704156909167
000610 92 16 bb 85 3f 74 d4 3f 31 e0 65 ad 51 aa c6 3f
       0.3195952230420086 0.17707272497841722
000620 c1 48 56 d4 40 27 ce bf 0e 50 72 c8 c2 71 cb 3f
       -0.2355729138185492 0.21440920627048893
000630 ec aa 44 6d d9 c9 54 3f fb 6d b1 6a 45 49 b5 bf
       0.0012688277539136218 -0.08314927916347152
000640 4b 6f 06 e4 af 0d b7 bf 7b 6e 84 14 99 7a d3 3f
       -0.0900525981618873 0.30435778621333726
000650 8c 29 26 6b 44 2a be 3f 11 43 02 8f 79 f5 aa 3f
       0.117832447204057 0.05265407438958481
000660 f5 c1 d7 56 26 70 d0 3f e5 1c 5a 49 f6 8b d5 bf
       0.256845078284669 -0.33666760600358564
000670 0d d6 ea 6c 3a a5 c0 bf 8d c7 23 bb 67 85 bb bf
       -0.13004236524800242 -0.10750435179559599
000680 57 b3 32 21 2a 03 d0 bf b2 df e3 e8 9d e9 93 bf
       -0.25019314996716474 -0.019445865001187897
000690 bd 54 9f fd f1 a8 d3 3f 74 d6 2b 45 1c 30 a5 3f
       0.3071866013318177 0.04138267845511914
0006a0 39 97 73 1b 8a da c5 bf f3 46 da 2b 94 c2 c6 3f
       -0.17073179569632105 0.17781307355158268
0006b0 41 a0 2b f5 0f 2b c8 bf 5b df 13 93 30 c5 d2 bf
       -0.18881415816508887 -0.293285506849761
0006c0 00 00 00 00 e0 fd ae 3f 00 00 00 c0 76 0b c4 3f
       0.060530662536621094 0.15659984946250916
0006d0 00 00 00 80 dd 26 b6 bf 00 00 00 00 04 54 80 bf
       -0.08653053641319275 -0.007972747087478638
0006e0 00 00 00 60 55 82 ce bf 00 00 00 c0 21 38 ca 3f
       -0.2383524626493454 0.20483800768852234
0006f0 00 00 00 c0 42 3b d0 bf 00 00 00 c0 f4 78 c9 bf
       -0.25361698865890503 -0.19900378584861755
000700 00 00 00 e0 05 7a d2 bf 8c 76 1f 6a b8 83 cc bf
       -0.2886976897716522 -0.2227697866609798
000710 48 b8 eb 6c 8e f6 c5 3f 1b ff bf 2a 9b ac d0 bf
       0.17158680265805715 -0.2605350415687881
000720 22 0f f7 fa 35 36 c0 bf fb 4c a5 28 47 d2 c4 bf
       -0.12665438417581593 -0.16266717419293983
000730 72 30 f2 7b 07 2d bf bf 4d 3a 0a 53 71 f5 d2 3f
       -0.12178084159876493 0.29623063191767046
000740 47 48 72 d7 0b 63 d3 3f 10 3e 19 e0 d4 63 b3 bf
       0.30292030372323037 -0.07574205847890192
000750 e6 09 8c e2 9a 62 d1 3f e6 11 03 64 7d 39 b2 3f
       0.2716433727620412 0.07118972484301586
000760 cc f5 84 4e d0 6a c4 bf f9 4d 5e 21 ab bc bc bf
       -0.15950969537691007 -0.11225385250718735
000770 d5 2e 27 5e 49 dd ba 3f 14 3a 62 4d fb d4 af bf
       0.10493906544359828 -0.0621717960321925
000780 95 85 2b 57 72 86 cf bf ba f4 14 f4 7e 42 d2 3f
       -0.2462904859194565 0.28530858837241235
000790 e4 e2 ea 13 d8 92 cc bf 48 0f d3 6e 38 95 54 3f
       -0.2232313248876131 0.0012562800505273187
0007a0 c0 4d 3e c2 42 c6 c1 bf 73 81 3b f0 9c 22 b1 3f
       -0.13886293873347988 0.06693440308618452
0007b0 d8 e8 29 37 87 9a b9 3f 2b ad 28 72 f4 9c bb bf
       0.10001416298647159 -0.10786369120676358
0007c0 bb 25 cd 7c e3 3e d0 3f b1 ec a2 c9 ca 43 c3 3f
       0.25383841693527714 0.15050635190514108
0007d0 96 8d 13 b2 16 b0 b7 3f aa 2d 0e 5c 1d 3d ce 3f
       0.09253064963882304 0.23624007220165072
0007e0 6f 66 48 db 54 87 ca 3f 25 1b 89 ed 3b 03 d4 3f
       0.20725498873871426 0.312697393387156
0007f0 ea 15 82 25 92 07 c9 3f 23 76 c4 bd 9c 23 c1 3f
       0.19554354506924138 0.13389930025088956

list_instructions.0.bias f8 [32]
000000 d8 cb 9b a4 65 a8 c8 3f 00 00 00 80 1f c1 d0 bf
       0.1926390699150875 -0.2617872953414917
000010 ce 8d f5 94 f6 34 c6 3f 41 78 fb 8d fb 51 bc bf
       0.17349130891226 -0.11062595573773228
000020 00 00 00 00 77 b1 c7 bf 2f 45 31 84 7e 8c d3 3f
       -0.18510329723358154 0.30545008572979077
000030 56 ef a6 c4 90 9e c7 3f 02 15 1d 07 fb a5 ca 3f
       0.18452653505471045 0.20819032523483122
000040 a1 b5 e4 63 ec 15 8d 3f be fe d1 b3 0b b2 c2 bf
       0.01420197181559041 -0.14605852394378432
000050 00 00 00 80 57 1f d5 bf c2 f2 e2 4d d4 5e c0 3f
       -0.3300379514694214 0.1278939609818704
000060 7e 1a c9 e9 4d 6a bd bf 00 00 00 80 96 b8 d4 bf
       -0.11490332563071523 -0.3237663507461548
000070 92 53 d6 e7 24 d9 d0 bf 3f 92 4a a2 83 b2 be bf
       -0.26325342789032746 -0.11991141044797703
000080 f4 4a 85 a5 47 91 c1 3f 4b 24 45 e0 5c cc bd bf
       0.13724608976425368 -0.11639957881301759
000090 53 f6 4f db 31 f5 ba 3f 32 18 29 2c 87 13 cd bf
       0.10530387501054266 -0.22715844780231148
0000a0 5b 37 b4 52 46 c6 d0 3f a4 a4 7e 3f 6a 89 d0 3f
       0.26210172726211106 0.258387147909682
0000b0 85 50 a5 b3 40 22 c1 bf a4 2c 84 b4 48 c2 a7 bf
       -0.13385781070485706 -0.04640414432113829
0000c0 00 00 00 60 80 e1 c8 bf 9b a7 14 48 6f 94 cc 3f
       -0.19438175857067108 0.22327986735882352
0000d0 1e 2d 03 c5 07 41 96 bf de c9 0f ae b3 06 ac 3f
       -0.021732446098025375 0.054738631246340694
0000e0 fb 42 be 53 cc ff bf bf b0 12 63 4c 93 4b b1 3f
       -0.12499692005645706 0.06755943884770477
0000f0 9e 59 60 7f 96 f4 ca 3f 83 89 6b 96 20 db cd 3f
       0.21058922977017586 0.23324973435144267

list_instructions.2.weight f8 [32, 32, 3, 3]
000000 09 86 55 3c 74 f2 9b bf 95 0d e9 f9 1a 1e ac 3f
       -0.0272920762848852 0.054917185789714974
000010 cb eb 63 80 89 3b 8a bf f2 92 c3 10 e9 4d a3 3f
       -0.012808870535527725 0.03770378427160449
000020 0d 62 88 3c 11 fe ad bf fc 35 d8 06 9d 08 6e bf
       -0.05857900489735721 -0.0036662165573548827
000030 79 80 8a b2 4a 8f a4 bf d5 e2 c9 4b 65 82 a4 bf
       -0.04015572957473607 -0.040057340146579946
000040 22 74 cd a2 bb f7 ac 3f 00 00 00 40 f1 d5 96 3f
       0.056577552436216885 0.02230050042271614
000050 00 00 00 80 93 4c 8c 3f 00 00 00 80 a7 fc 8c 3f
       0.013817932456731796 0.014153774827718735
000060 00 00 00 80 8e 21 90 bf 00 00 00 00 67 eb 79 3f
       -0.01575300842523575 0.00632801279425621
000070 00 00 00 20 64 f6 a9 3f 00 00 00 e0 29 58 ab 3f
       0.05070794001221657 0.053407009690999985
000080 00 00 00 00 66 50 95 bf 00 00 00 c0 6d 68 9d 3f
       -0.020814508199691772 0.028718676418066025
000090 97 54 ce 85 1b c6 8b bf b4 df fa a7 b2 fb 94 bf
       -0.013561453839239497 -0.02049140119808586
0000a0 20 3f 95 51 85 6f 6a 3f 07 f6 1b a2 3c dc 96 3f
       0.0032270053749598043 0.022324511904107804
0000b0 3a 14 ba 24 5c c3 a8 3f 26 be e0 18 20 5f a0 bf
       0.04836547802282394 -0.03197574905095406
0000c0 be fe 37 8f ea 42 a2 bf cb ac 0b f7 df a3 7d 3f
       -0.03566678045535586 0.0072363613732974825
0000d0 11 1a 4d 72 5c 5f a2 bf 00 00 00 20 ab 20 a6 bf
       -0.035883797600536955 -0.043217990547418594
0000e0 00 00 00 60 60 29 ac 3f 00 00 00 00 0a 83 6f 3f
       0.055003177374601364 0.0038466639816761017
0000f0 3c 0e 65 9d fc 99 92 bf 00 00 00 e0 42 b2 a1 3f
       -0.018165537935841622 0.03456315025687218
000100 00 00 00 c0 9c ea 93 3f 70 93 de 3e ea af a9 bf
       0.019449662417173386 -0.05017025010537324
000110 1a 3b e6 b4 aa f3 a4 bf 81 af 53 a9 c2 e6 98 3f
       -0.04092153032535446 0.024317781052487945
000120 00 00 00 c0 4c 11 99 bf 00 00 00 c0 75 1b a9 bf
       -0.024480056017637253 -0.0490376278758049
000130 00 00 00 60 fb 00 a4 3f 00 00 00 60 ad b3 a8 bf
       0.03906999155879021 -0.04824582859873772
000140 00 00 00 e0 a7 0c aa 3f 00 00 00 40 34 b3 92 3f
       0.050877805799245834 0.018261734396219254
000150 00 00 00 40 d4 a8 98 3f 00 00 00 c0 81 db 9a bf
       0.024081531912088394 -0.026227977126836777
000160 00 00 00 c0 06 b3 93 3f e8 00 f7 1e db 62 8a 3f
       0.019237618893384933 0.012883865244362316
000170 8c 86 4f 4c 00 2e 8a bf a1 8e bd d6 13 5d 9e bf
       -0.0127830527580415 -0.029651937467305548
000180 d3 13 12 5b 1a a3 aa bf a4 f0 69 5c e6 d6 61 bf
       -0.052025626770990784 -0.0021776675451388883
000190 5b 13 fc 67 da 33 7d 3f f6 7f 9a 36 42 95 a4 bf
       0.007129529141597891 -0.04020125309511961
0001a0 04 57 dc c2 31 49 a7 bf d0 3f 84 bd 16 ca a2 bf
       -0.04548030379934967 -0.03669806540904086
0001b0 0a 44 a5 42 d6 8f a4 bf af 24 26 ac 58 f8 98 3f
       -0.04015988887352513 0.024384866244450517
0001c0 72 3f f3 bb 12 96 9f 3f 4e 09 1e a2 ae d3 ab bf
       0.030845921250885984 -0.054349381723130294
0001d0 a6 0b d4 eb 64 32 75 3f 09 0f 85 03 b2 d0 95 3f
       0.005175012801603629 0.02130392214281954
0001e0 dc f2 8c 77 d1 29 ae bf 5e 5d b3 c0 6b eb 89 bf
       -0.05891279777867961 -0.012656060999161663
0001f0 f5 46 28 ac 90 38 a5 bf de 6f 2e 77 e5 f5 a0 3f
       -0.04144718266992512 0.033126040266523424
000200 8e 66 95 22 b6 5d a3 bf 99 8b 76 a1 98 b2 a3 bf
       -0.03782433674014128 -0.038471955976340406
000210 37 94 38 44 d1 4f aa 3f ad 54 b4 c6 68 5b 9d 3f
       0.0513902087953188 0.028669011238055365
000220 14 e8 a3 09 03 b5 a9 3f 31 f2 14 37 3c 7c a9 3f
       0.05020913593939738 0.04977596447358613
000230 cc c7 81 c5 35 0a ab bf 1d c7 4c 88 57 61 9d bf
       -0.05281227146123477 -0.02869164246948862
000240 00 00 00 20 e1 fe ad 3f 00 00 00 80 be 7c 9d bf
       0.05858520045876503 -0.028796173632144928
000250 40 24 4b 31 91 23 a3 3f 00 00 00 c0 f9 8a 9d 3f
       0.03738073088386118 0.028850462287664413
000260 00 00 00 00 75 48 76 bf 3d 62 3d 9b d6 32 a2 bf
       -0.00544019415974617 -0.035544115495842445
000270 cc b9 b8 aa 08 7f 64 3f 09 1c 84 28 3c 00 a4 3f
       0.0025019807124160073 0.039064292856032586
000280 e1 73 e2 6b 6a 3b a8 bf c1 d0 4c 34 11 2f ac bf
       -0.047328305882935025 -0.055046594270977696
000290 c9 bd e4 0e cc ac 90 3f ae 10 ec 1f a7 52 94 3f
       0.01628416863348806 0.019846545527813113
0002a0 19 78 fa d9 88 25 91 3f 50 80 60 eb a2 fd 97 3f
       0.016744745544762994 0.02342848359705868
0002b0 dc 37 3e 60 55 74 83 3f 14 75 7e 9b 2f 76 ac bf
       0.009499232291798103 -0.055589187365720744
0002c0 8f 9c 76 6c 37 57 a9 bf 79 25 df 45 37 1a 8a 3f
       -0.04949353407874312 0.012745315379919063
0002d0 00 00 00 00 89 46 ac bf 00 00 00 80 7b ee 8f bf
       -0.055225640535354614 -0.015591587871313095
0002e0 00 00 00 40 1b ce 94 bf 00 00 00 c0 40 e8 95 3f
       -0.020317483693361282 0.0213937871158123
0002f0 00 00 00 c0 ff e4 9a bf 00 00 00 20 65 a3 a1 3f
       -0.026264186948537827 0.034449730068445206
000300 00 00 00 e0 47 cc a5 3f 00 00 00 a0 be 9a ad bf
       0.042574163526296616 -0.057821232825517654
000310 00 00 00 a0 36 2e a5 3f d5 a7 32 fc b6 08 ab bf
       0.04136820510029793 -0.05280086353862116
000320 6a 5b 90 cf 27 aa 9c bf 05 3b 7f c3 df 9b 90 3f
       -0.02799284176225162 0.016219612414540858
000330 1e 3c 60 2f 7e 74 99 bf 25 00 88 dc d6 67 a0 bf
       -0.024858447686764255 -0.032042231006926415
000340 1c 98 e0 9c 03 3d a8 bf 76 60 f9 32 10 9c 9a 3f
       -0.047340500736297225 0.025985959159101367
000350 d9 bc e4 c9 3d 43 7a 3f 04 59 7b 76 fd 24 aa 3f
       0.006411782609844618 0.05106346198378911
000360 e7 6e bc 44 ab 09 95 bf a8 b6 7a b0 5d a4 93 3f
       -0.020544696874920467 0.01918169393200367
000370 ca d8 44 b2 f2 77 a0 3f 32 83 65 1c e0 c5 2b bf
       0.03216513086447177 -0.00021189079979946343
000380 66 9d 8c b1 fa c5 81 bf 3b b1 bf 37 62 00 a7 3f
       -0.00867839674317734 0.04492480211760826
000390 1e 43 1e 57 e9 4d 9f 3f 57 37 72 34 bd 11 a4 3f
       0.030570646230958613 0.03919783845149876
0003a0 63 03 8a 70 29 0b 71 bf 00 00 00 40 ef e6 99 bf
       -0.004161035417042355 -0.025295007973909378
0003b0 00 00 00 80 cc d1 93 bf 00 00 00 00 ff 85 a4 bf
       -0.019355006515979767 -0.04008480906486511
0003c0 00 00 00 00 4f ff 7f bf 00 00 00 c0 a5 47 a8 bf
       -0.007811840623617172 -0.04742162674665451
0003d0 00 00 00 60 70 30 aa 3f 00 00 00 40 99 55 93 3f
       0.05115080997347832 0.018881220370531082
0003e0 00 00 00 80 ac 56 9a bf 00 00 00 00 41 b2 76 bf
       -0.02572125941514969 -0.0055410899221897125
0003f0 4a 2d 15 f0 66 4b 82 3f 88 f1 2f 16 0d f0 aa 3f
       0.00893288059400867 0.05261269470063029
000400 99 00 a1 3e 7a d7 74 3f 00 00 00 80 c5 47 96 bf
       0.005088307874814423 -0.02175816148519516
000410 00 00 00 40 0d 93 93 bf 03 fd 93 81 4b 99 82 3f
       -0.019115645438432693 0.009081449405583536
000420 00 00 00 e0 82 92 a1 3f e1 86 bb af 38 67 98 bf
       0.03432091698050499 -0.023831258512365564
000430 21 3d 25 85 00 a2 9f bf a3 f5 96 6c 99 2a a5 3f
       -0.03089142620711727 0.041340631967141016
000440 e7 1b 91 d3 02 ef 91 3f 77 1b 8a 90 8a d5 aa bf
       0.01751331726361718 -0.05241044058225602
000450 07 4b f7 47 a3 cd 98 3f 3c a3 4e 2f d0 b4 a9 bf
       0.024221946017699583 -0.05020762040596202
000460 b9 38 a6 0d bf f0 a1 bf ac 47 66 25 c2 21 ac 3f
       -0.035039873520064053 0.054945056023952915
000470 59 05 f2 bc 26 1f a9 bf 24 9b 36 e1 72 9a a0 bf
       -0.049065790714858344 -0.03242835044084405
000480 75 eb 22 aa 8e 17 b2 bf ba de 5f 3e 3a 0f 96 bf
       -0.07067195562096436 -0.021542463357006915
000490 c4 6b a5 91 2f ea 96 3f b3 a3 e1 13 cd c8 97 bf
       0.022377722992455565 -0.023226932848419767
0004a0 3c b3 c2 46 61 55 9a 3f ff 51 a0 b0 b8 53 ab bf
       0.025716323799019877 -0.05337311893541496
0004b0 7e cf 73 76 41 43 ac 3f c8 c9 2e e4 24 b5 a6 bf
       0.05520062037422145 -0.0443507698577324
0004c0 44 96 42 92 55 26 9a 3f 41 ff f9 a1 58 1b aa 3f
       0.025536858608253846 0.050989885113266194
0004d0 de ca d0 fe f1 00 86 bf 2e 38 51 b6 15 e8 7f 3f
       -0.010743990506033748 0.007789692700567881
0004e0 70 c9 29 9e 6b 54 a0 bf 09 9e fd f8 93 a4 76 3f
       -0.0318940764017438 0.005528047578855951
0004f0 ea 2e 84 f6 c5 1f 52 bf 62 cd 4e 8f c8 f6 a2 bf
       -0.0011062081558205713 -0.03703905820239119
000500 9d 06 77 21 7e ee 87 bf a3 8e 7a de c6 d2 9a 3f
       -0.011685357471722663 0.02619467480566463
000510 be ce 91 89 22 0b b0 bf 4d 9c a8 04 22 9a af bf
       -0.06266990526801927 -0.06172281557911017
000520 7a 1b e2 50 50 e0 a6 bf 79 58 40 f6 ad 9c a5 3f
       -0.04468012797683847 0.04221099501607823
000530 8b 9b 1b 2c b5 c6 a2 bf 05 c0 b9 69 e8 83 ab bf
       -0.03667226947236831 -0.05374075213046584
000540 e5 b8 0a 81 19 2a 81 3f 81 50 6a 03 8f fb aa bf
       0.008381079912706155 -0.05270049015703738
000550 34 80 ca 10 35 30 92 bf 38 50 f4 b3 0a 18 98 3f
       -0.017762021207659198 0.023529212220708667
000560 b3 70 70 6d f7 77 a6 3f 43 4f 4b 45 31 6f 7f 3f
       0.04388402186325049 0.007674400771708725
000570 f7 55 2a 3f 9a 20 94 bf 89 88 5f 4a 90 8a a3 bf
       -0.019655618768032537 -0.03816653163791368
000580 cd 02 3d 25 8c 97 9a bf b1 82 f0 59 b7 11 81 3f
       -0.02596873261723225 0.00833457225059084
000590 cf 70 14 e1 88 b5 8b 3f 40 42 84 35 7f b2 92 3f
       0.01352984368218593 0.018259036675831064
0005a0 e6 22 d8 48 da 2a a1 3f bc 15 a4 1b b7 ae 96 3f
       0.03353006495678361 0.022150860845632656
0005b0 d2 16 69 08 97 0b a4 bf e8 13 31 fb bd 92 ad bf
       -0.039150924469635875 -0.057760178483057534
0005c0 d9 0a 90 7d aa 9b aa 3f a5 42 f6 92 3c 78 72 3f
       0.051968887164567774 0.00450919782396456
0005d0 97 70 51 e1 9f e1 9f 3f d0 d5 77 d2 78 e8 a0 bf
       0.03113412678463642 -0.03302362031164885
0005e0 84 44 af c7 fb d3 74 bf 95 a8 a5 33 cb 67 a8 3f
       -0.005084975734420575 0.04766688352067764
0005f0 bf 29 1b 15 3a 1c 7c 3f 9f 91 11 49 8d 3e 96 bf
       0.006862856754830947 -0.02172299154735102
000600 91 2f 44 53 83 b1 a3 bf 3c d0 df d5 8d 30 94 bf
       -0.038463691629743064 -0.019716468981599386
000610 86 5e 18 f8 11 17 9e 3f 86 11 c0 23 bc 03 a4 3f
       0.0293848807978905 0.03909099518208152
000620 01 ef 28 19 16 9b 65 3f 6e 55 a9 14 91 25 a2 3f
       0.002637427483277111 0.03544286133971296
000630 f4 2b d0 91 fb 9f a5 bf 5a cc ee d0 82 7d a4 bf
       -0.04223619608827525 -0.04002007294129646
000640 5a 95 1b 1f 3f d1 a6 bf e7 72 6a 47 d5 96 98 3f
       -0.04456517462476013 0.024012882694125628
000650 7e 4b ed c3 1e ed 9a 3f 9d 25 7d a5 6a c1 a0 bf
       0.02629516669123743 -0.03272565145614268
000660 51 3e 0c e9 60 48 99 3f b2 e1 89 23 7f 30 a1 3f
       0.024690164779768434 0.033573124969680804
000670 ce ca 22 58 14 0f a2 bf 05 6a 81 8a 92 34 a2 3f
       -0.03527129722478649 0.03555734577885875
000680 a6 85 d0 0a f1 cd a1 bf 33 dc 47 46 d1 ad 96 bf
       -0.03477433449757976 -0.02214743606051801
000690 ae 0e 0a de 3a 8d a6 bf 98 8a 1b d5 ac 50 98 3f
       -0.04404624901237973 0.0237452511854693
0006a0 00 00 00 60 13 64 a2 3f 43 f2 29 a7 9b 09 91 3f
       0.03591976687312126 0.016638214185592536
0006b0 dd ec a8 25 64 0a ac 3f 60 97 9b ac e4 87 a9 3f
       0.054766778561736486 0.049864908285413234
0006c0 00 00 00 c0 0e 15 a7 bf 00 00 00 00 10 6a 63 3f
       -0.04508253186941147 0.002369910478591919
0006d0 00 00 00 80 c6 aa 8c 3f 00 00 00 80 88 f6 80 3f
       0.013997603207826614 0.008282724767923355
0006e0 00 00 00 80 4f 4d 81 3f 00 00 00 e0 3d 24 a8 3f
       0.008448239415884018 0.04715150222182274
0006f0 00 00 00 60 3f 9f a4 3f 00 00 00 c0 76 45 9a bf
       0.04027746245265007 -0.025655608624219894
000700 00 00 00 e0 e5 99 9e bf 24 29 d9 2c 16 0c a7 bf
       -0.02988394908607006 -0.045014088606494945
000710 60 13 65 16 dc 33 9c bf bf 90 19 ee 66 77 af bf
       -0.02754157911956001 -0.061457840504574694
000720 1f 76 d2 1d b5 d7 9c 3f f7 c5 bf 02 e8 79 a7 bf
       0.028166608758161012 -0.04585194619711424
000730 a1 38 81 d0 52 c3 84 3f 73 4d d2 06 5a 37 91 bf
       0.01013817499929487 -0.016812712351180047
000740 a4 04 6e 6d 07 3f aa 3f 37 bb 09 ac 9e fa aa 3f
       0.051262123211025995 0.0526933274276104
000750 cc 94 16 59 be 42 95 bf 5d af ae 34 3c de b0 bf
       -0.02076241892577428 -0.06589103971663009
000760 1c e0 fb 3d 65 d7 b0 bf a7 03 cb 94 90 c2 62 bf
       -0.06578667414930844 -0.002290041337204635
000770 fc 11 dd cc 84 cf 88 3f f0 c8 7c 6e a3 f8 a3 bf
       0.012114560605945172 -0.039006335484730204
000780 71 f4 1b 79 22 8a a4 3f ed 08 cf 90 27 c9 97 bf
       0.040116383823240016 -0.023228281224654635
000790 24 7b e3 3d 66 85 a0 3f 7b 6b 13 6f 48 36 aa bf
       0.03226775651432082 -0.05119539600283126
0007a0 3b 2e 3b a8 41 a0 9e bf 28 82 d0 f5 f1 0b 67 bf
       -0.02990820493032074 -0.0028133130822569803
0007b0 99 34 48 71 76 f7 a9 bf 48 9e a0 3f d3 6b a9 bf
       -0.050716115311027106 -0.04965076591207357
0007c0 ff 22 7e b3 95 64 96 3f d3 19 bd 16 57 f4 4d bf
       0.021868075447431853 -0.0009141373861687958
0007d0 7f 70 a2 f8 83 7d 91 bf ab dd cf b6 9f 9d 8f bf
       -0.017080366182753878 -0.015437362448195232
0007e0 17 96 18 a2 1d bc aa 3f e9 2f 68 31 ac 10 78 bf
       0.05221645930968693 -0.005875275257960035
0007f0 ff 54 7c 55 1b bf 83 3f 8b a2 17 b1 e1 c5 9a 3f
       0.009641850992503807 0.026145483430726684

list_instructions.2.bias f8 [32]
000000 44 bd 16 f1 19 b3 8b 3f 8e eb 44 36 c2 dc 99 bf
       0.013525202436396662 -0.02525618988259342
000010 32 f0 30 a2 7a e7 a5 3f b5 a6 3d 8c 17 25 82 3f
       0.04278166990158673 0.008859809844312986
000020 fc 49 b1 4c 51 da 9a bf 8d 48 56 be b2 fa 91 3f
       -0.026223440462056033 0.017557900302172903
000030 5c f7 76 65 01 2e 82 3f 72 f1 7b cd 75 1c 8e bf
       0.008876810940701745 -0.014702720960024538
000040 a5 8f 9f d0 fa 31 b1 bf 7e 45 d1 3a db fa a6 bf
       -0.06716888039915021 -0.04488263218866971
000050 e4 e4 e0 9f 19 66 84 bf 9b 35 30 ac 1c a8 94 bf
       -0.00996036547813834 -0.020172546395817652
000060 0d e3 5c 5e 85 68 a2 3f 84 54 e7 23 ea 17 a0 3f
       0.035953681725407895 0.0314324539973905
000070 83 46 bb e2 c6 4e 96 bf b2 08 85 89 b0 42 87 3f
       -0.021784885014148003 0.011357669064299667
000080 27 e6 4e 55 a4 26 a5 bf 8b 6d 68 9a 36 d8 ab bf
       -0.04131043950424056 -0.05438395151960681
000090 7c 02 7b 90 06 d0 6f bf 00 e5 38 ed fb 5a 80 bf
       -0.003883374043511188 -0.00798603837675893
0000a0 02 b2 bb 17 81 b1 a0 3f 03 7f 3a 27 a2 a9 a6 3f
       0.032604250094525625 0.04426295021880657
0000b0 79 1a 7c 2f 9b 26 94 3f 4a 9c 35 73 68 bf 91 3f
       0.019678520940056708 0.017331726104569158
0000c0 17 dd 52 35 67 09 92 bf 73 8b c8 a0 a8 2f 94 bf
       -0.01761399519884063 -0.01971305352538928
0000d0 57 39 3f e8 11 21 9c bf 4b a5 78 30 f6 01 a5 3f
       -0.027469901848058722 0.04103059140863737
0000e0 39 6c e5 60 ef d7 94 3f 17 11 1b 8a e0 d9 84 bf
       0.020354976929734845 -0.01018119260277976
0000f0 84 b4 c6 a9 7a 28 86 3f fc fb 42 0b 91 76 a4 bf
       0.01081939535728283 -0.039967091202463195

list_instructions.4.weight f8 [32, 32, 3, 3]
000000 00 00 00 00 27 8f 7e 3f 00 00 00 40 6a 56 90 bf
       0.007460739463567734 -0.015954647213220596
000010 00 00 00 e0 b3 60 ab bf 00 00 00 c0 a3 0e 90 bf
       -0.05347215756773949 -0.015680845826864243
000020 00 00 00 40 ef 0c 90 3f 00 00 00 80 ae 72 92 bf
       0.015674341470003128 -0.018015600740909576
000030 00 00 00 20 94 36 a6 3f 00 00 00 40 c7 aa a0 bf
       0.04338515177369118 -0.03255293518304825
000040 00 00 00 80 74 57 8f 3f 00 00 00 60 ba 8d a1 bf
       0.015303526073694229 -0.03428442403674126
000050 00 00 00 60 e8 39 a7 3f 00 00 00 40 7c b2 99 bf
       0.04536367580294609 -0.025094930082559586
000060 00 00 00 00 e4 0a 61 bf 00 00 00 80 ff ee a2 bf
       -0.002080388367176056 -0.036979660391807556
000070 00 00 00 00 e6 c5 6d 3f 00 00 00 a0 a1 74 ac 3f
       0.0036344043910503387 0.05557732656598091
000080 00 00 00 00 70 20 5f 3f 00 00 00 a0 06 63 a9 3f
       0.001899823546409607 0.04958363249897957
000090 ba 50 b9 e6 f0 da 9e 3f 97 d5 ad 13 01 89 af bf
       0.030132068712490613 -0.061592134144045456
0000a0 00 00 00 a0 2d 7c a5 3f 89 15 25 8d 86 86 b1 bf
       0.04196302965283394 -0.06845894761962347
0000b0 9e 13 9f 88 a9 6a b0 bf 00 00 00 20 dc 0b 9f bf
       -0.06412753663523893 -0.03031867928802967
0000c0 ec 69 18 bd de 78 a7 3f 21 ed 0d 14 7b 43 a7 bf
       0.045844040472917985 -0.045436712453886814
0000d0 00 00 00 a0 19 36 a7 3f 00 00 00 e0 6a 98 a8 3f
       0.045334625989198685 0.048037853091955185
0000e0 00 00 00 e0 ec 1b a4 bf 00 00 00 00 c9 1a 8c bf
       -0.039275553077459335 -0.013722963631153107
0000f0 00 00 00 c0 20 b5 a5 bf 00 00 00 00 6d 29 a5 bf
       -0.04239752143621445 -0.04133167862892151
000100 00 00 00 c0 c8 b4 a6 bf 00 00 00 40 0d 57 92 3f
       -0.04434802383184433 0.017910201102495193
000110 00 00 00 a0 0d 1e ab bf 00 00 00 40 c7 e5 97 3f
       -0.05296366289258003 0.023337472230196
000120 00 00 00 e0 fa 0e a3 3f 00 00 00 40 7e b8 9e 3f
       0.03722366318106651 0.030000660568475723
000130 00 00 00 80 9e d4 8f 3f 00 00 00 00 e4 9f ad bf
       0.015542257577180862 -0.057860493659973145
000140 00 00 00 80 30 72 85 3f 00 00 00 20 40 55 aa bf
       0.010471705347299576 -0.05143165960907936
000150 00 00 00 e0 8f 5c a3 3f 00 00 00 e0 e4 79 a0 3f
       0.03781556710600853 0.032179977744817734
000160 00 00 00 c0 94 68 9b 3f c8 a7 7a af c3 67 9b 3f
       0.026766132563352585 0.026763017259021443
000170 9a b8 3c 94 d9 32 91 bf 00 00 00 20 82 6e ad bf
       -0.01679553954380051 -0.0574837364256382
000180 e8 a2 c6 73 88 7b a5 bf 52 3c 6f a8 fc 2a 32 bf
       -0.04195810712127984 -0.0002772204247180654
000190 00 00 00 00 ac 0b 92 bf f6 1b ca 0f b1 03 89 3f
       -0.017622649669647217 0.012214072508198708
0001a0 92 b4 bd ee 2a 48 88 bf 00 00 00 a0 30 64 a6 3f
       -0.011856398974226221 0.0437331385910511
0001b0 90 9d 81 3f 27 bd 96 3f 0e ec 10 ed a1 61 9f 3f
       0.02220593762504347 0.03064587602078111
0001c0 00 00 00 c0 24 a3 9d bf f1 58 12 0e f1 41 9d bf
       -0.02894265577197075 -0.028571859821192317
0001d0 64 11 d6 7a 30 78 a8 3f 00 00 00 80 99 64 84 3f
       0.0477919721552407 0.009957503527402878
0001e0 e8 97 1b a9 31 60 a2 bf d5 2a 45 25 0d f2 8c 3f
       -0.035890151875534404 0.014133551311393525
0001f0 00 00 00 00 a1 39 83 bf 00 00 00 40 7d 3c 99 3f
       -0.009387262165546417 0.02464481070637703
000200 00 00 00 c0 43 3c 9f 3f 00 00 00 00 c2 e1 63 3f
       0.030503328889608383 0.002426985651254654
000210 00 00 00 c0 73 90 a6 bf 00 00 00 40 24 bd 9a bf
       -0.044070832431316376 -0.026112142950296402
000220 00 00 00 00 a6 d6 6c 3f 00 00 00 20 c6 92 a6 3f
       0.003520321100950241 0.04408854618668556
000230 00 00 00 20 49 91 aa 3f 00 00 00 80 cb bf a5 bf
       0.05188969150185585 -0.042478904128074646
000240 00 00 00 e0 c4 fc a6 bf 00 00 00 20 ef d3 a4 bf
       -0.04489722475409508 -0.04067942872643471
000250 00 00 00 c0 11 fe 92 3f 00 00 00 60 48 dd a9 3f
       0.01854732260107994 0.05051637813448906
000260 00 00 00 80 36 dd a7 bf 00 00 00 40 90 19 9c bf
       -0.04660959541797638 -0.027441266924142838
000270 00 00 00 40 e5 44 94 bf 00 00 00 80 55 dc 8f bf
       -0.01979406550526619 -0.015556972473859787
000280 00 00 00 00 54 7c 9e bf 00 00 00 a0 7e da a6 bf
       -0.029771149158477783 -0.04463573172688484
000290 00 00 00 40 e8 cc 94 3f 00 00 00 80 3b 97 a3 bf
       0.02031290903687477 -0.03826318681240082
0002a0 00 00 00 40 c2 99 92 bf 00 00 00 a0 bf 9e ac 3f
       -0.01816466823220253 0.05589865520596504
0002b0 00 00 00 20 6d 5c a4 3f 00 00 00 00 d7 d2 89 bf
       0.03976765647530556 -0.012609176337718964
0002c0 00 00 00 a0 ba 0b a5 3f 00 00 00 20 d3 33 a2 3f
       0.041105110198259354 0.03555164113640785
0002d0 2f c2 74 49 d1 1f a2 3f 62 49 0c e0 f0 41 80 3f
       0.035398998467261904 0.007938272321130927
0002e0 00 00 00 80 2b 0c 8f 3f 11 d7 57 9a 61 a7 aa bf
       0.015159931033849716 -0.05205826767989497
0002f0 90 bc d9 0a a1 f0 9c bf 00 00 00 80 5e 14 86 bf
       -0.028261677062286383 -0.01078103855252266
000300 79 8d da 67 33 39 98 bf 68 5d d7 b7 b8 48 a7 3f
       -0.0236557037484437 0.045476696435509834
000310 00 00 00 60 1e 81 a3 bf 00 00 00 00 2c 30 75 bf
       -0.038094472140073776 -0.005172893404960632
000320 00 00 00 80 0b 7d 8b 3f 00 00 00 60 fc 1a a7 bf
       0.013422098010778427 -0.045127760618925095
000330 00 00 00 80 4f b2 a4 bf 00 00 00 a0 c6 f0 a6 3f
       -0.04042290151119232 0.044805724173784256
000340 00 00 00 80 80 c1 82 bf 00 00 00 80 cf a7 99 bf
       -0.009158138185739517 -0.0250542089343071
000350 00 00 00 00 00 4f 53 3f 00 00 00 00 11 f2 7d 3f
       0.0011785030364990234 0.007310930639505386
000360 25 04 02 f3 4f ff 9f bf 55 4f 85 db b3 08 a9 3f
       -0.03124737663938872 0.0488945203275352
000370 00 00 00 00 dd c0 8f bf a6 18 4c 03 f2 1e 8f bf
       -0.01550457626581192 -0.015195742345451468
000380 1a 21 9f d2 b7 9f 8d 3f 00 00 00 00 c0 3e a3 bf
       0.014464794268761728 -0.03758811950683594
000390 7b b4 66 75 26 91 a0 3f ec f9 ee 10 c0 cb b0 bf
       0.032357408362579464 -0.06560898221412231
0003a0 00 00 00 00 7b fe a2 bf 00 00 00 60 be b2 a9 bf
       -0.037097781896591187 -0.05019183084368706
0003b0 00 00 00 c0 b4 8b 91 bf 00 00 00 00 79 9b 7d 3f
       -0.017134498804807663 0.007228348404169083
0003c0 00 00 00 80 04 ba 85 bf 00 00 00 00 21 35 a2 bf
       -0.010608706623315811 -0.035561591386795044
0003d0 00 00 00 80 2d 15 87 bf 00 00 00 00 ca e4 9f bf
       -0.011270862072706223 -0.031146198511123657
0003e0 00 00 00 40 0c 1a a6 bf 00 00 00 e0 32 e0 a3 bf
       -0.04316747933626175 -0.038819875568151474
0003f0 27 98 6d 0d a2 87 b0 bf fe fb 72 7f ab 44 8c 3f
       -0.06456959560236496 0.013802852465571998
000400 00 00 00 00 86 6a 80 bf bc 9a b9 9a 99 22 a3 bf
       -0.008015677332878113 -0.0373733521817505
000410 31 00 e2 30 e8 99 89 bf 00 00 00 40 d7 e8 9a 3f
       -0.012500585548195971 0.026278842240571976
000420 b6 42 ae 3e db 8d af bf ea e2 5f 08 33 67 9d bf
       -0.06162915363450365 -0.028713986765043588
000430 00 00 00 80 ca 56 aa bf 36 05 40 0e 5a ad 93 bf
       -0.05144341289997101 -0.019215972060924368
000440 0a 74 9d c2 77 63 86 bf 00 00 00 c0 d3 f2 a8 bf
       -0.010931907297782945 -0.048727624118328094
000450 8b 64 5e 7d be 44 a5 bf 7a 78 96 53 eb 81 6b bf
       -0.04154010086421874 -0.0033578487606993864
000460 00 00 00 00 a9 b6 95 bf 31 dc 32 00 08 54 aa bf
       -0.02120460569858551 -0.05142235758233261
000470 98 b1 4f 66 72 fe 87 bf 00 00 00 40 dd 7f a8 bf
       -0.011715787646573259 -0.04785052686929703
000480 1f ae 5c 53 d5 28 a9 bf c6 01 6b 7c f2 f4 66 3f
       -0.04913965838053635 0.0028023468069877404
000490 00 00 00 00 ce 78 ab bf 89 76 a8 43 7f d8 a4 3f
       -0.053656041622161865 0.040714241990127915
0004a0 70 91 8c c2 4f 45 9a bf 00 00 00 80 59 76 85 3f
       -0.025655027627310145 0.0104796402156353
0004b0 fb 15 80 05 b1 49 aa bf 9c fd 3d 6e 7f 2c a4 3f
       -0.05134347145216719 0.03940199108819373
0004c0 00 00 00 80 88 42 88 3f 70 62 b1 d2 e6 7b 48 3f
       0.011845652014017105 0.0007471921029589945
0004d0 00 00 00 40 8b ea a5 bf 00 00 00 a0 9d f9 aa bf
       -0.04280505329370499 -0.05268566682934761
0004e0 ec 67 3e 4d 46 ea 93 bf 00 00 00 80 ed 4f 85 3f
       -0.01944837423761918 0.010406356304883957
0004f0 00 00 00 80 a3 23 8a bf 93 ba 12 cd 69 76 70 3f
       -0.012763287872076035 0.004019177709024507
000500 00 00 00 c0 9a 57 a7 bf 00 00 00 80 cb c3 99 bf
       -0.045590244233608246 -0.025160960853099823
000510 00 00 00 00 40 55 74 bf 00 00 00 00 97 59 73 3f
       -0.004964113235473633 0.004724111407995224
000520 00 00 00 00 f3 5b 88 bf 00 00 00 40 ab fb 94 bf
       -0.01189412921667099 -0.02049129083752632
000530 00 00 00 80 90 a6 a4 bf 00 00 00 20 2e b6 ab 3f
       -0.04033328592777252 0.05412429943680763
000540 00 00 00 00 41 b1 ac bf 00 00 00 00 28 b1 63 3f
       -0.05603983998298645 0.0024038106203079224
000550 00 00 00 a0 4e 60 a3 bf 00 00 00 00 5c 69 a3 bf
       -0.03784414008259773 -0.03791320323944092
000560 00 00 00 80 d6 8f 85 bf 00 00 00 00 55 8b 78 3f
       -0.010528255254030228 0.005992252379655838
000570 00 00 00 c0 f3 e0 9e 3f 00 00 00 a0 30 7d ad bf
       0.030154999345541 -0.05759574845433235
000580 00 00 00 00 e0 ba 55 3f 00 00 00 40 60 27 9b 3f
       0.0013262927532196045 0.026517394930124283
000590 00 00 00 c0 ce 12 93 bf 00 00 00 20 bc 10 ac 3f
       -0.018626432865858078 0.054815176874399185
0005a0 00 00 00 00 63 c0 75 bf 00 00 00 80 8a 65 a9 bf
       -0.005310427397489548 -0.049602821469306946
0005b0 00 00 00 c0 3d 77 93 bf 00 00 00 c0 a2 0b 97 3f
       -0.019009556621313095 0.022505324333906174
0005c0 00 00 00 00 d6 1d 6d 3f 00 00 00 80 78 95 8e 3f
       0.003554265946149826 0.014933530241250992
0005d0 00 00 00 60 b1 e7 a8 3f 00 00 00 e0 1a 64 aa 3f
       0.04864267632365227 0.05154499039053917
0005e0 00 00 00 a0 e0 5e a3 3f 47 26 52 e9 8e 4a a0 3f
       0.037833232432603836 0.031818834287218815
0005f0 f2 05 2f 79 a9 fb 90 3f 00 00 00 c0 5b 7f 99 3f
       0.01658501436373245 0.02489989623427391
000600 92 cc 0f 09 6f 30 93 bf f3 c3 4e d0 d1 4f a1 3f
       -0.018739447525103765 0.03381210010355309
000610 00 00 00 00 ec 8c a2 bf b7 0e 56 79 8e 55 81 bf
       -0.036231398582458496 -0.008463967397580914
000620 d8 e7 98 b3 59 ee 8c 3f 00 00 00 00 e0 02 a6 bf
       0.014126492303251512 -0.042990684509277344
000630 c4 55 a6 dc 2e b2 8a bf f5 cc 40 5b 84 61 93 3f
       -0.013035169705100887 0.01892668539967431
000640 00 00 00 00 28 ac 54 3f a8 e7 a0 41 f1 b2 9d 3f
       0.0012617483735084534 0.029002923613212467
000650 ed d7 33 03 5c 5e b0 bf 00 00 00 c0 58 66 92 3f
       -0.06393981054483762 0.017968546599149704
000660 be d8 80 bb 83 ae 99 bf 5d 17 98 33 d7 36 90 bf
       -0.02507978279046407 -0.015834200405172683
000670 00 00 00 a0 2b b9 a9 3f 00 00 00 e0 ac 22 a6 3f
       0.05024086311459541 0.04323330149054527
000680 00 00 00 80 52 7e 8e 3f 00 00 00 80 72 4d 8e 3f
       0.014889378100633621 0.01479615643620491
000690 00 00 00 c0 a7 50 9c 3f 00 00 00 a0 03 1a ac bf
       0.027651425451040268 -0.054885972291231155
0006a0 00 00 00 00 89 71 8f bf 00 00 00 40 0f 5a 91 bf
       -0.015353269875049591 -0.016945112496614456
0006b0 00 00 00 60 5f fb a6 bf 00 00 00 20 09 58 a5 3f
       -0.044886570423841476 0.04168728366494179
0006c0 61 90 84 5c 0f 63 ac bf 2e 81 74 42 dd b8 8e bf
       -0.05544326786392229 -0.01500103816084727
0006d0 00 00 00 c0 64 48 9a 3f 5c 31 1e 4c 08 ff a6 3f
       0.02566678449511528 0.04491449288534241
0006e0 d3 13 79 c0 5b 9f 9e 3f 00 00 00 c0 0f ca 9b 3f
       0.029904779074303733 0.027137991040945053
0006f0 65 3c b0 ee 64 fe a2 bf 20 fc 47 8c 8b dd a5 bf
       -0.03709712423016568 -0.04270588004509812
000700 00 00 00 80 b7 00 a2 bf 00 00 00 00 90 ac 6a bf
       -0.03516171872615814 -0.0032561123371124268
000710 00 00 00 00 c0 47 40 bf 00 00 00 00 36 25 a9 bf
       -0.0004968345165252686 -0.049112021923065186
000720 00 00 00 00 10 b1 7f bf 00 00 00 c0 cd 98 96 3f
       -0.007737219333648682 0.022067274898290634
000730 00 00 00 c0 1d a2 91 3f 00 00 00 80 2e 47 8c bf
       0.017219986766576767 -0.013807643204927444
000740 00 00 00 e0 05 58 a4 3f 00 00 00 40 e9 06 93 3f
       0.03973406180739403 0.018581051379442215
000750 00 00 00 c0 d1 63 9b 3f 00 00 00 80 64 b6 9f bf
       0.026747968047857285 -0.03096920996904373
000760 00 00 00 60 1c e7 a4 3f 00 00 00 20 b1 41 a4 3f
       0.0408257357776165 0.03956368938088417
000770 00 00 00 a0 a7 5f a1 bf 00 00 00 20 e5 8a a1 bf
       -0.03393291309475899 -0.03426280990242958
000780 00 00 00 40 e9 12 97 3f 00 00 00 a0 e7 62 a1 3f
       0.022533077746629715 0.03395770862698555
000790 00 00 00 80 ef 2f 81 bf 00 00 00 80 b7 c0 a3 bf
       -0.00839221104979515 -0.03857968747615814
0007a0 00 00 00 a0 57 a2 a0 3f 00 00 00 40 44 64 9f bf
       0.03248857334256172 -0.03065592423081398
0007b0 00 00 00 80 a8 0d a8 bf 00 00 00 e0 03 17 a8 bf
       -0.04697920382022858 -0.047050591558218
0007c0 00 00 00 c0 14 07 95 bf 00 00 00 00 38 65 81 bf
       -0.020534824579954147 -0.00849384069442749
0007d0 00 00 00 e0 cf 33 ab 3f 00 00 00 c0 de b2 9c 3f
       0.05312966927886009 0.02802608534693718
0007e0 00 00 00 00 69 db 7f 3f 00 00 00 80 5d c0 92 bf
       0.007777605205774307 -0.018311940133571625
0007f0 00 00 00 60 c9 43 ab bf 00 00 00 e0 9b a0 a2 3f
       -0.05325154587626457 0.03638159856200218

list_instructions.4.bias f8 [32]
000000 f0 bf 72 d7 a5 8f a5 bf 06 2f 04 4b 6c a2 66 3f
       -0.04211157088263906 0.0027629962061207517
000010 21 98 1f 8a 13 bd 7e 3f 61 74 50 2d eb 7b 8b 3f
       0.007504535986276679 0.013419949837095215
000020 a6 23 4e 6a a7 dc 8f bf da f3 55 2d c7 02 a0 3f
       -0.015557582790067869 0.031271194728993826
000030 d8 9a 95 a9 b8 65 72 3f d4 87 b1 63 30 2f 92 3f
       0.0044915402771496735 0.01775813683014589
000040 c2 bb 95 11 25 ae 91 bf 07 50 bf d4 2c 2d 82 3f
       -0.017265872190758598 0.00887522720578461
000050 df ca 16 bf 07 4d a0 3f 49 d1 a0 75 64 4c b0 bf
       0.031837694240854246 -0.06366565582067553
000060 ac 4e 3a 2a 30 45 8b bf 4d da 00 f7 f4 61 94 3f
       -0.013315559662522368 0.01990492589558306
000070 63 57 df 00 da 78 ac 3f 84 f0 83 4e de 6a 7f 3f
       0.05560952435159441 0.007670277009534602
000080 9d c3 3c 65 78 7b 83 3f 63 d1 9a 50 b8 2e 91 3f
       0.009512844647902525 0.01677978507969281
000090 ea 32 52 19 00 c7 a8 3f ed 3b d7 bf 79 cf 9e bf
       0.04839325245948152 -0.03008833154109063
0000a0 05 3f 9f c4 70 0e a3 3f dd 27 1c be 32 d9 9d 3f
       0.037219547273364774 0.02914885793055776
0000b0 00 64 cf bf b4 2f a4 3f f6 a3 74 12 91 b5 7c bf
       0.03942646829063534 -0.007009092986927526
0000c0 da 06 f4 31 b7 2e a3 bf 5b c1 cd 75 3d c9 98 3f
       -0.03746578678875574 0.024205169978303114
0000d0 f6 34 05 5d 40 bd a6 bf 34 2d 7b ac 1e 48 95 3f
       -0.04441262374403181 0.020782927777685603
0000e0 03 a5 cc 82 ea 61 aa 3f e9 aa 2d fb a7 e3 af bf
       0.05152829024002339 -0.0622837537874455
0000f0 7b a1 b7 e0 b4 b4 95 bf 96 0e ef 30 eb e1 b0 bf
       -0.021197153297096243 -0.06594724602387667
